final_project/models/student_model_G_1-epoch.model (torch, 509579 bytes, 30 tensors)

conv1.conv2d.weight f4 [16, 3, 3, 3]
000000 bc 53 86 3d 26 8c 05 be 75 d6 31 3d 6d d1 d3 bb
       0.0655894 -0.13041744 0.043417413 -0.0064641745
000010 ee 40 20 be 87 de 1a 3e 05 5e 2c 3d e9 1c 29 be
       -0.15649769 0.1512395 0.04208185 -0.16514935
000020 34 27 1d 3e dd 39 80 3d 5d e5 48 bb 3f f5 da 3d
       0.15346986 0.062610365 -0.003065429 0.10691308
000030 fe 3e 35 be 37 5c be bd ab c3 50 3e cf 84 4b be
       -0.17699811 -0.09294932 0.20387141 -0.19874881
000040 18 5a a9 bd a0 3f 48 3e 9e c7 98 3d 8f e0 c4 bd
       -0.08269137 0.19555521 0.07459949 -0.09613144
000050 da 48 29 be 8e a3 95 bc 08 94 b8 3d 8c 4f f5 3d
       -0.16531697 -0.018266466 0.0901261 0.11978063
000060 5a a1 e2 bd c3 71 29 3e b6 a1 83 bd 30 c4 6b bc
       -0.110659316 0.16547303 -0.06427328 -0.014390036
000070 12 26 16 3e 39 a9 1b 3e 72 9d 91 bd 58 98 f0 bd
       0.1466296 0.15201272 -0.071101084 -0.11747807
000080 7a d8 a2 3b ed 6d b7 bd 04 ef ea 3d d3 a9 10 be
       0.0049696537 -0.089565136 0.1147137 -0.14127283
000090 56 5c b8 3d d7 9a 40 3e bb 6d 1e 3d a2 cb da 3d
       0.09001987 0.18809067 0.038678866 0.10683371
0000a0 67 a4 0b be 0c ff 6c bd 5f 15 55 3c 6d f9 6b be
       -0.13636933 -0.05786042 0.013005584 -0.23044367
0000b0 81 05 30 3b 46 97 06 3e 95 b6 23 bc f5 d6 ad 3d
       0.002685875 0.13143644 -0.009992261 0.084882654
0000c0 a6 e5 62 3c e7 eb f9 ba 72 44 b7 bc 1a f2 0f bd
       0.013848698 -0.0019067497 -0.022371504 -0.035142995
0000d0 85 21 73 bd a2 fd d1 bd fa b0 b7 bd f6 ab 2f 3d
       -0.05935814 -0.10253455 -0.089693025 0.042888604
0000e0 84 07 bc bc 97 ff 86 bd 18 a7 52 3c 43 fc 3b be
       -0.022952802 -0.06591719 0.012857221 -0.18357949
0000f0 6a b2 4d 3e 75 8a 18 3e 41 d1 83 bd ed 44 fd bd
       0.20087591 0.14896567 -0.064363964 -0.12366662
000100 21 55 3f 3e 8d 94 c6 3d 6c b2 2c bd 08 bd 5c bd
       0.18684818 0.096963026 -0.042162344 -0.05389121
000110 53 10 6a bd ad 9d 55 3d 63 22 80 bd da aa da bd
       -0.057144474 0.052152324 -0.06256559 -0.106771186
000120 0f d8 10 3e 7f fc c4 3c c1 ba 44 bd 9e c0 96 bd
       0.1414492 0.02404618 -0.048029665 -0.073609576
000130 4e 86 81 bd 87 22 96 bd b1 42 48 bd c5 56 2b be
       -0.06324445 -0.07330804 -0.048891727 -0.16732319
000140 27 67 b8 3d 35 a7 04 39 59 e5 b9 3d 94 cb 1b 3e
       0.0900405 0.0001265079 0.09076948 0.15214378
000150 4d 62 55 3d 63 b6 25 be dc 8d b5 bd a7 7b 6c 3c
       0.0520957 -0.16182856 -0.08864948 0.014433778
000160 31 0f ac bd 97 97 e2 bd 87 32 d2 3d 54 5f 28 3e
       -0.08401335 -0.1106407 0.102635436 0.16442615
000170 25 6a 7a 3e d4 68 bb bc d0 30 88 be 28 5b 3a 3d
       0.24454553 -0.022877134 -0.2659974 0.04549709
000180 e6 83 f2 3c f1 62 64 be cd 51 fa 3d cd 39 1e be
       0.02960391 -0.22303368 0.122226335 -0.15451737
000190 3a d9 b2 3d 67 c5 d8 3d a3 dd 0d be cc 51 16 be
       0.08732839 0.105845265 -0.13854079 -0.1467964
0001a0 ad 5f d4 3c af 34 d7 3d f5 14 d8 3d ac b6 d7 bc
       0.025924528 0.105080955 0.10550872 -0.026332222
0001b0 91 69 4b be 50 17 10 be 0a 3c e7 bd 9f 6a a7 3d
       -0.19864489 -0.14071393 -0.112907484 0.08174633
0001c0 cf 9d b0 bb 9b 92 88 3d 8b d6 ad bb b0 fd a3 bd
       -0.005389906 0.06668588 -0.0053051165 -0.080073714
0001d0 5b a9 b8 3d b2 80 a8 3d 46 ef 08 3e 5a 0e 84 3d
       0.09016677 0.08227672 0.13372526 0.0644805
0001e0 41 60 31 3d 2c e3 f7 bc 53 01 b7 3d 0a c5 02 3e
       0.043304686 -0.030259691 0.089357994 0.12770477
0001f0 29 aa 3c 3e f6 58 3a 3e cf 6d 22 3e 9e 71 0d be
       0.18424286 0.18197998 0.15862201 -0.13812873
000200 15 4c 24 3d 9c 5c 98 bd 52 71 bd 3d 92 41 16 bc
       0.04011162 -0.07439539 0.0925013 -0.009170907
000210 e9 42 1a be 26 fc 37 be c3 11 70 be 68 ae 05 3e
       -0.15064587 -0.17967281 -0.23444276 0.13054812
000220 77 48 b7 bd 0e d1 af bd 8d 04 d6 3d 46 8f d2 3b
       -0.089493684 -0.08584796 0.10450087 0.006425771
000230 8c 13 57 3d f8 e0 37 bd b4 e1 80 bd 8b 64 15 3e
       0.052508876 -0.04489228 -0.062930495 0.14589135
000240 07 1c f4 bd 75 09 5b be 74 24 28 bd 02 c5 22 bc
       -0.11919408 -0.21390326 -0.04105039 -0.009934666
000250 f9 f9 8a be 3e c4 64 be 9f cf 6b 3d 80 25 63 be
       -0.2714384 -0.22340485 0.05757105 -0.22182274
000260 fa 3e e4 bc d5 9e f8 3b 46 a5 34 3e ba 1f d7 3b
       -0.02786206 0.0075872936 0.17641172 0.0065650614
000270 e7 bf 66 bd 4d c0 3a 3e 84 20 23 bd 06 16 39 3e
       -0.056335356 0.1823742 -0.03982593 0.18074808
000280 16 aa 02 bb 42 6a dd 3d ea 7b 1c be d6 bf 23 bd
       -0.0019937805 0.10811283 -0.15281644 -0.03997787
000290 90 1a 42 be 03 5b d6 3d bc ac be bb 7b 50 c5 3d
       -0.18955445 0.10466578 -0.0058189314 0.09634491
0002a0 11 33 a4 3c e9 9c 4e 3c 2b 30 0d 3e f9 9f 70 3d
       0.020043882 0.0126106525 0.13787906 0.05874631
0002b0 88 11 09 be c9 0e 6c be f6 11 2f bc 8b 34 63 3e
       -0.13385594 -0.23052515 -0.010685435 0.22188012
0002c0 28 35 06 be b8 31 e2 3d ff e7 af bd bc e9 63 3e
       -0.13106215 0.11044639 -0.085891716 0.22257131
0002d0 13 37 36 bd 38 0a e1 3d 6d cb 32 be 51 9c 23 bd
       -0.044486117 0.10988277 -0.17460413 -0.039943997
0002e0 02 46 2d bd 07 2c ce 3c 85 c6 ad bd cf 1c ca 3d
       -0.042303093 0.025167478 -0.0848513 0.09868776
0002f0 3d eb 1a 3e 0b 94 32 3e c0 c1 8f bd 51 63 60 bd
       0.15128799 0.17439286 -0.07019377 -0.054782216
000300 f3 92 0f 3d 65 11 1a bd f8 8e 42 bc b3 94 18 bd
       0.03505225 -0.037614245 -0.011874907 -0.037251186
000310 3c 69 0b bd af 36 d4 3c 8e 8c 62 3e 7d a3 1e be
       -0.034035906 0.025904981 0.2212393 -0.15492053
000320 12 25 c5 bd 7b 43 29 3e 6f 68 a4 bd da c0 52 be
       -0.09626211 0.16529648 -0.080277316 -0.2058138
000330 9f 59 f9 3d a6 7d 07 3e 5e 66 d8 bd 44 30 59 bd
       0.12175297 0.13231525 -0.105664 -0.053024545
000340 17 06 ce 3d a6 b0 20 bd 5f 4b 13 3e 5a e8 00 be
       0.10059755 -0.039230965 0.1438422 -0.12588635
000350 e4 95 a4 bd a8 07 ce bc b7 a6 9c bc b3 54 d4 3d
       -0.08036402 -0.025150135 -0.019122465 0.103677176
000360 1e 99 5b 3d 85 f0 3a 3a 33 ad 62 bd b5 9a 3e be
       0.05361282 0.0007131177 -0.055340957 -0.18613704
000370 aa cd b3 3d 42 c1 84 bd 22 77 14 bd 49 bb 1c 3d
       0.08779462 -0.064821735 -0.036246426 0.038264547
000380 0f 3c f1 bd ab 33 ff 3d b8 04 1e 3e ab d2 1b 3e
       -0.117790334 0.12461027 0.15431488 0.15217082
000390 57 81 8d bc ba 27 ed 3d fd 5f 4c 3e 0b 44 22 be
       -0.017273588 0.11579843 0.19958492 -0.15846269
0003a0 2e 84 61 3e 93 6e 94 3d 9d b2 46 3c 15 6f 2d 3e
       0.22023079 0.07247653 0.012127546 0.16936906
0003b0 df c5 d0 bd 3d ba d5 3d ca 4e 5c 3c 8d 0c 3c bc
       -0.10193991 0.10435913 0.013446519 -0.011477602
0003c0 03 7a b2 3d 45 8f 7c bd f9 f1 b3 bd 52 93 d3 bd
       0.08714678 -0.06166007 -0.08786387 -0.103308335
0003d0 07 90 c6 3d 2f 1a 13 3e 9b 9d 3e be b0 18 17 be
       0.0969544 0.14365457 -0.18614809 -0.14755511
0003e0 01 36 05 3d 6c 4f 55 bd 3a 33 03 3e af 35 bb 3d
       0.032522205 -0.052077696 0.1281251 0.09141099
0003f0 76 b9 af bd 42 62 09 be ce 6f 2e 3e 65 2b b8 bd
       -0.08580296 -0.13416389 0.17034838 -0.08992652

conv1.conv2d.bias f4 [16]
000000 18 46 91 bd 47 a7 ae bc dc c1 3d 3e cb d5 2e 3d
       -0.070934474 -0.021319998 0.18530983 0.042684358
000010 fc 3d 96 3d 10 2c 7a 3d 0b 89 0b be dd fb 5e bd
       0.07336041 0.061077178 -0.13626496 -0.054439414
000020 4d b8 e5 3d b1 2e 70 3d 80 20 08 be 7a cc fe 3d
       0.11216793 0.05863828 -0.13293648 0.124413446
000030 ea 4a bf bd c2 39 1a bb 5b d2 27 be b4 83 ff bc
       -0.093404606 -0.0023532961 -0.16388838 -0.03119073

IN1.weight f4 [16]
000000 0c f1 7f 3f 77 7f 8b 3f 89 72 60 3f b3 b0 70 3f
       0.99977183 1.0898274 0.87674767 0.9401962
000010 61 1c 29 3f 84 81 56 3f 28 cf 96 3f e9 1a 8a 3f
       0.6605893 0.83791375 1.1781969 1.0789462
000020 f0 1a 6d 3f 10 72 6a 3f 7d f6 31 3f 2e a2 5b 3f
       0.9261923 0.91580296 0.69516736 0.8579434
000030 87 eb 6c 3f f1 f0 65 3f c8 50 4e 3f 83 f9 69 3f
       0.92546886 0.8982077 0.8059201 0.9139635

IN1.bias f4 [16]
000000 83 32 4d 3e 55 0a fc 3e a1 24 34 be d5 10 3e 3f
       0.200388 0.49226633 -0.17592098 0.74244434
000010 d0 b1 78 3f 6f ca 0e bd dd ce 04 3f 51 f5 c1 3e
       0.9714632 -0.034861024 0.5187815 0.37882474
000020 16 e7 72 3d ed 61 1f 3f c1 5e 5e 3e 2a a8 0e 3d
       0.059302412 0.622588 0.21715833 0.034828342
000030 e4 d6 ae bd a5 d0 b3 3e 53 5d 1f 3f 57 c0 41 bd
       -0.08537081 0.3512012 0.62251776 -0.04730257

conv2.conv2d.weight f4 [32, 16, 3, 3]
000000 fc 93 30 bd d6 bb 5a bd 61 a4 ff 3b 84 c8 a7 bc
       -0.04310988 -0.05340179 0.007801578 -0.020481355
000010 d5 ee 4c ba 28 18 f4 3b a0 95 bd 3d 1f f2 8a 3d
       -0.0007817571 0.0074491687 0.09257054 0.06784462
000020 76 75 ea bc 6b be 83 bc 6a 9f 43 3c bc 19 61 bd
       -0.028620463 -0.01608201 0.011939863 -0.054956183
000030 81 f5 cc bc 0b 9f 5a bd 8c 2a ac bd d0 0c c3 bc
       -0.02501941 -0.05337433 -0.08406553 -0.02380982
000040 dd 87 fe bd 77 23 01 be ef c0 60 bd 71 01 0f bc
       -0.124282576 -0.12611185 -0.054871496 -0.008728371
000050 88 d9 09 bc 20 a0 bc 3b 46 64 bc bc 9e d7 08 bd
       -0.00841368 0.005756393 -0.022997033 -0.033408754
000060 69 63 b0 3c c1 0e b6 bc d1 2d 64 3c 41 f0 66 bd
       0.021531777 -0.022223832 0.013926939 -0.056381468
000070 e5 9a 7e bb ca 2e 4d 3d 48 4a 4e bd 22 d3 48 3d
       -0.0038849649 0.05009345 -0.05036381 0.049029477
000080 7a 11 75 3d 0f 22 3b 3b 3b bd 6d bc b2 8f e7 bc
       0.05983112 0.0028554236 -0.014510448 -0.028266761
000090 e4 f9 54 bd 0e 1d 2c 3c ef 7e 2f bd 21 51 10 3d
       -0.051996127 0.010504974 -0.042845663 0.03523362
0000a0 a2 f0 fb 3c 47 83 12 bd fa 57 49 3b 29 7f 36 bd
       0.030754391 -0.035769727 0.0030722604 -0.044554863
0000b0 61 27 57 3d 6e 4c 7d 3c 14 07 01 3c 66 e9 b1 bc
       0.05252779 0.015460117 0.007875223 -0.021717738
0000c0 23 ba e6 3c 03 56 72 3d a5 3a 9e 3c 96 3e b7 3c
       0.028164929 0.05916406 0.019315073 0.02236871
0000d0 b6 16 b4 bc 62 d7 1a 3c 39 54 d8 3d eb 2f ba 3d
       -0.021983486 0.009450765 0.10562939 0.09091171
0000e0 98 74 2d 3d 05 c2 06 3b 5b 60 12 3c 2f 81 52 3d
       0.04234752 0.0020562422 0.008934106 0.05139273
0000f0 e9 bb 59 3e c5 27 ab 3e 2a 7a 68 3e 3f bb 26 bc
       0.21263088 0.3342878 0.22702852 -0.010176479
000100 4f 9f b8 3c 63 18 52 3d 04 76 07 bd a2 0d 03 3d
       0.022536902 0.05129279 -0.033071533 0.031995423
000110 d0 d7 47 bc 70 59 7a 3d fa 15 f8 3b 6e c1 8f bb
       -0.01219745 0.06112045 0.007570979 -0.0043870723
000120 9e 5d 77 bd 27 0c b6 bb 2e 47 7b bd 95 32 3d 3d
       -0.060392015 -0.005555648 -0.06134718 0.046190817
000130 0e e8 d6 bc 2d 7e 27 bd 7f 11 48 3d a3 62 d3 3c
       -0.0262337 -0.040891815 0.04884481 0.02580387
000140 4c a1 84 3d a9 2b 72 3d 05 57 ce 3c 30 a4 3a 3d
       0.064760774 0.05912367 0.025187979 0.045566738
000150 9f b6 80 bd 5e ff 9b bd e9 0d 82 bc 1d 5b e4 3b
       -0.06284832 -0.07617067 -0.015875774 0.0069688694
000160 cc c0 a8 3d 4c de 8a 3c 3b 88 7c 3d b7 aa 3a bc
       0.08239898 0.016951703 0.061653357 -0.011393241
000170 60 65 86 bd 8e 24 c2 3c 26 7e 31 bd 5e 08 05 3c
       -0.065623045 0.023699071 -0.043333195 0.008119671
000180 ba 2c 98 bc 11 df 21 3d 01 73 41 3d 1b 02 6b bd
       -0.018576015 0.039519373 0.047228817 -0.057375055
000190 49 9f 54 bd ad f2 d1 3c 49 88 8c 3c 20 cc 5c bd
       -0.05190972 0.025628412 0.01715483 -0.053905606
0001a0 8e 44 ad bb 04 cd 15 3c 65 2a 13 3d 9e f0 68 3d
       -0.0052877134 0.009143118 0.035929102 0.056870095
0001b0 8a 2d 3e 3c 92 09 d6 bc b5 e7 ac bc fa 47 bc 3c
       0.011607537 -0.02612761 -0.02110658 0.02298354
0001c0 bd 64 85 3c 89 2e 81 3d 3a 6e 81 bd 76 28 23 bc
       0.016283387 0.06307704 -0.06319852 -0.009958377
0001d0 1f 1f 22 bd 85 c2 91 bc c8 3f c7 3b f7 62 fc bb
       -0.03958046 -0.01779295 0.0060806014 -0.007702227
0001e0 18 a5 27 3c c0 a3 fe bc 1f 9c e1 3c cb b4 34 bd
       0.0102322325 -0.031083941 0.027540265 -0.04411773
0001f0 68 60 b3 bd 34 c9 d0 bc ef f1 db 3c 3c 1a c8 bc
       -0.087586224 -0.025486566 0.026848761 -0.024426572
000200 d1 fc ef 3b a4 ec 87 3c 91 e2 a3 3b db fb cc 3c
       0.0073238392 0.016592331 0.005001374 0.025022438
000210 b7 0f 38 bd b9 47 cb 3c cd bf 3e 3d dc e1 d3 3b
       -0.04493686 0.024814473 0.046569634 0.0064661335
000220 d7 bc 1c 3d fc 31 41 bd 4a b9 69 bc f9 bd 0c 3d
       0.03826603 -0.04716681 -0.014265368 0.03436086
000230 ee 24 77 3d d0 40 90 bb 3a 0c f3 3c 4d a2 4b bd
       0.060337953 -0.0044022575 0.029668916 -0.04971533
000240 98 56 81 bd 2f 25 58 3c 3e 64 b2 3c 23 b9 cf 3d
       -0.063153446 0.013192459 0.021776315 0.10142734
000250 ea 48 7d bc 99 8a 95 bd 78 7a 4e bd 6a 9b 55 bd
       -0.015459279 -0.07301826 -0.050409764 -0.052150168
000260 1e e7 65 3d a5 27 2b bd 5e 3d 2c 3c e0 1c 10 bd
       0.056128614 -0.041785855 0.010512678 -0.035183787
000270 27 33 21 bd 7b c0 ef bd ea 26 59 bd d1 0c 9b bc
       -0.039355423 -0.117066346 -0.053015627 -0.01892701
000280 5b 2a 12 3e d6 1a 9b 3d e0 99 2a bd e8 ea 75 3d
       0.1427397 0.07573478 -0.041650653 0.060038477
000290 19 2d 8f 3d 43 19 0d 3c 55 69 41 bd 63 35 47 bd
       0.069910236 0.00861198 -0.047219593 -0.048634898
0002a0 2f 95 88 bc b6 7d 62 3d cc a7 0c 3d 8c 82 5b 3c
       -0.016672699 0.05529567 0.03433971 0.013397824
0002b0 5c 79 62 3d 94 da bb bb 77 9e 73 bd 14 e2 19 be
       0.05529152 -0.0057328437 -0.059477296 -0.15027648
0002c0 3b 46 99 bd d2 bb f1 3c 38 98 0c 3e fb d6 a0 3d
       -0.074840985 0.029508505 0.13729942 0.07853504
0002d0 9b 7a 6f bd 9e ce c5 3b f2 ca 24 bb 64 0b bc bc
       -0.058466535 0.0060365936 -0.002514538 -0.02295465
0002e0 57 f6 b1 3d cc 36 30 3d 8a 7a 56 bd f1 eb 0d 3d
       0.08689564 0.04302101 -0.052362956 0.03464884
0002f0 eb cb 21 bd c8 6a 97 3c 0d 35 9c bc 16 ea d6 bc
       -0.039501112 0.018483534 -0.019068265 -0.026234668
000300 f2 b9 de bb 2d 95 89 3d 2d 8e 29 bd a7 97 2c 3d
       -0.0067970688 0.06717906 -0.041395355 0.042136814
000310 32 da 80 bc d9 bf bf bb 01 4b ce bc 57 1f 81 3d
       -0.015729044 -0.0058517274 -0.025182249 0.06304806
000320 ca ff 56 3c 2a 36 4f 3d a1 7c fe 3d 2f 58 54 3c
       0.013122508 0.050588764 0.12426115 0.012960478
000330 0c b3 b6 bd e8 6c 03 be b3 2a 33 bd 9e fc df 3c
       -0.08920869 -0.12834513 -0.043741893 0.027342137
000340 ff aa d8 3d ec 3f 0c 3d 1e a5 da bc db d8 01 be
       0.1057949 0.03424065 -0.026690062 -0.1268038
000350 07 ea 14 be ab a8 36 3b 9b 6b 0d 3d e1 91 b9 3d
       -0.145424 0.002787153 0.03452645 0.09061027
000360 fe ff 18 bd 2a 46 b1 3c f8 9b 04 bd 8c 2c bd 3c
       -0.03735351 0.021639902 -0.032375306 0.02309253
000370 fa 71 a9 3c 4b a2 70 bd a8 10 c6 bc 83 7d 7b 3d
       0.020684231 -0.058748525 -0.024177864 0.061398994
000380 7d 4a 2b 3d 57 dc fa 3c a2 47 24 bc 32 dc 67 3d
       0.041819084 0.030622644 -0.010026844 0.05660648
000390 59 87 aa bc 4d 36 d6 3c 46 ba 4e 3b 6c c7 26 bc
       -0.020816492 0.02614894 0.0031544133 -0.010179382
0003a0 d4 58 8d 3c ed 54 a2 bd 8a ed 37 3c fa 9d 37 3d
       0.01725427 -0.079263546 0.011226067 0.044828393
0003b0 52 7e 8f 3d fb dd 16 bd 6b 7b 2f bd aa 30 25 bd
       0.070065156 -0.03683279 -0.04284231 -0.040329613
0003c0 61 a3 0d 3d 5f 4e e0 bb 15 d2 b7 bc 6f 6a 30 bc
       0.03457964 -0.00684528 -0.022439042 -0.010767563
0003d0 41 4b 21 bd 2d af 27 bd 19 58 d4 3b b6 77 82 3d
       -0.03937841 -0.040938545 0.0064802286 0.06370489
0003e0 94 be fd 3c de 30 1b 3d 33 42 19 bd cd bb 7b bc
       0.030974664 0.0378884 -0.037416648 -0.015364599
0003f0 83 52 64 3b 6d fc 88 bd b6 76 ad bc 7e ac e9 3b
       0.003483922 -0.066887714 -0.02117477 0.0071311584

conv2.conv2d.bias f4 [32]
000000 35 88 2c bc c0 88 ac bc 43 03 8e 3d 8f 9e 84 bd
       -0.010530521 -0.021061301 0.06934216 -0.06475555
000010 20 49 7b bd 01 e2 13 3d 9a fa 8b bd 48 24 9d bb
       -0.061349034 0.036104206 -0.06834908 -0.004795585
000020 5f ad 95 bd e5 8b a7 3d 8c b4 8d 3c 57 1d 67 ba
       -0.073084585 0.0818098 0.017298006 -0.00088163227
000030 b8 94 77 bd 0e be 97 3d 1e cf f6 bc d7 a4 cf 3c
       -0.060444564 0.07409297 -0.030128058 0.025347156
000040 0d 73 a6 3d 0d 69 34 3d 04 64 a3 3d f4 ab 64 bc
       0.08127413 0.044045497 0.07978061 -0.013957012
000050 91 24 4c 3c 15 13 f4 bb b3 aa 6c bc d8 ae 3d bd
       0.01245989 -0.007448564 -0.014444995 -0.046309322
000060 ba bf 41 bc 76 b3 a6 bd a9 07 88 3d 44 45 a5 bc
       -0.011825496 -0.08139698 0.06642086 -0.02017463
000070 94 31 8b 3d 43 48 52 bd e0 14 9b bc db f4 80 bd
       0.06796566 -0.051338445 -0.018930852 -0.062967025

IN2.weight f4 [32]
000000 0b 92 78 3f 85 dc 8d 3f df 08 8f 3f f8 e3 62 3f
       0.97097844 1.1082922 1.1174582 0.886291
000010 4c 9b 8f 3f 16 2f 35 3f 86 15 27 3f f5 60 75 3f
       1.1219268 0.7077497 0.6526722 0.9585107
000020 8a f0 5d 3f 95 0e 61 3f 07 4e 8a 3f 74 91 60 3f
       0.8669516 0.87912875 1.0805062 0.87721944
000030 93 20 84 3f 84 a8 8d 3f f9 37 63 3f 89 e9 67 3f
       1.0322441 1.1067052 0.8875728 0.9059072
000040 4c 2c 6e 3f 32 9d 7e 3f 93 30 86 3f 7e 30 94 3f
       0.9303634 0.9945861 1.0483574 1.1577299
000050 76 e8 5c 3f b2 e9 84 3f 6b 42 75 3f 6d 64 53 3f
       0.8629221 1.0383818 0.9580447 0.8257511
000060 98 60 7f 3f 80 e9 9c 3f 50 7f 74 3f e1 9d 77 3f
       0.99756765 1.2258759 0.95506763 0.9672528
000070 e2 cb 89 3f 87 2f 85 3f cc af 6c 3f 5c 25 87 3f
       1.0765345 1.0405129 0.92455745 1.0558276

IN2.bias f4 [32]
000000 e8 fc 6c 3e 7b 1e 3c bc 2f 8e 58 bd 19 d1 af be
       0.23143351 -0.0114818765 -0.05286997 -0.34339216
000010 d8 8c 36 3c f2 a3 15 3f 2e 8f 27 3f bd 0b 33 3e
       0.011141978 0.58453286 0.6545285 0.17484947
000020 76 37 04 3e a0 38 8d 3d 53 78 e7 3e e0 b6 9d bc
       0.12911782 0.06895566 0.45208988 -0.01925224
000030 e9 8b 01 3e 4e db d9 3d c8 ef a4 3c 97 92 bc 3d
       0.12651028 0.10637532 0.020133868 0.09207647
000040 d9 91 77 3d b2 ae 5e 3d 37 62 a2 3e 07 9e 06 3e
       0.060441826 0.05436582 0.31715557 0.1314622
000050 67 bc e4 3d ce e5 0c 3f a0 76 47 3e 91 50 13 3b
       0.111687474 0.55038154 0.19478846 0.0022478441
000060 2d ce 44 3d 50 b5 ab 3e f2 7c a5 3e 88 52 aa 3e
       0.048048187 0.33536768 0.32321888 0.3326609
000070 94 16 66 3e 14 c7 ce 3e 47 5e 3d 3e 20 ba 14 ba
       0.2246955 0.4038626 0.18492995 -0.0005673487

conv3.conv2d.weight f4 [64, 32, 3, 3]
000000 e7 3d 70 3c 29 07 70 bc 9c 57 64 bc 74 b3 2c bd
       0.014663196 -0.014650145 -0.013936903 -0.042163327
000010 0b ce cf 3b fe e8 a2 bc 4c 3e 22 3d b6 09 74 bc
       0.006341701 -0.01988649 0.039610192 -0.014894893
000020 68 1d 0c 3c b4 e7 3e 3a d1 74 b0 3b ae a5 57 39
       0.008551933 0.0007282451 0.0053850194 0.00020565718
000030 ae 34 cc bc 9e b9 91 bd a0 3e 5f 3d c4 d7 23 bd
       -0.024927463 -0.07115482 0.054503083 -0.040000692
000040 67 ae b1 3a 91 26 60 3d 5e 53 1b bb b1 28 46 3c
       0.0013556004 0.05472428 -0.0023700814 0.0120946625
000050 a9 3f 58 3c 13 0a 1e bd 5d 35 79 bd 84 58 54 3d
       0.0131987715 -0.038583826 -0.060841907 0.051842228
000060 e6 74 c6 bc d1 8f 24 bd 82 f3 33 3d 74 a3 89 ba
       -0.024225663 -0.040176217 0.0439334 -0.0010500983
000070 2b 0f 45 bc 4a b8 0c 3d 9c c1 95 3c d0 1d 36 bc
       -0.012027542 0.03435544 0.018280797 -0.011115506
000080 3b 5e b0 3c ec b2 58 3d 89 1b ac 3b 3f a8 15 bd
       0.021529308 0.05290501 0.005252306 -0.036537405
000090 af c4 32 bd 8e fb 7d 3c 71 7b c3 3b a3 41 72 bd
       -0.043644603 0.01550187 0.005965643 -0.059144627
0000a0 57 23 0d 3e 4d 43 2e 3d 45 a2 ae bc 45 39 36 3d
       0.13783012 0.04254465 -0.02131761 0.04448821
0000b0 e6 5d 42 3d f5 fc b8 3c 90 82 1b 3b d3 fa 7e 3c
       0.04745283 0.022581557 0.0023728944 0.015562731
0000c0 1b 61 08 bd 18 b9 af 3d 25 2d 2c bc 0e 0a 94 bb
       -0.033295732 0.08580226 -0.01050881 -0.0045178
0000d0 7b a4 39 bc eb fe 48 bb 5a a0 ac bb ae 82 94 bb
       -0.011330719 -0.003066952 -0.005268139 -0.00453218
0000e0 04 69 0e bc 41 06 19 bc 08 aa 65 3d 91 5f 8e bc
       -0.00869203 -0.00933987 0.056070358 -0.017379554
0000f0 85 97 31 bb a6 db 21 3d 87 7f 51 3b 30 39 d6 3b
       -0.002709837 0.039516114 0.0031966881 0.006537579
000100 22 f5 22 bd 93 c9 1e 3d 0b ce a3 ba 2b 66 90 bd
       -0.039784558 0.038766455 -0.0012497319 -0.07050737
000110 ce 2f 96 3c a1 03 aa bc 97 cb d4 bd a3 50 08 3c
       0.018333342 -0.020753684 -0.10390394 0.008320007
000120 00 0c 6b bc e6 5e a8 bc 02 91 4a 3c e4 89 e7 3c
       -0.014346123 -0.020553064 0.012363674 0.028263994
000130 fc c3 5e bd 73 59 c8 3c 20 a0 97 3d 89 b8 0d bb
       -0.054386124 0.024456715 0.07403588 -0.0021624884
000140 fd 0f b1 bc cf a4 8c bc 5c d4 1b 3c 47 72 68 bc
       -0.02161407 -0.01716843 0.00951108 -0.014187402
000150 93 1d c7 3c 94 cf 23 bd be 9c e9 3c ea fe 89 bc
       0.024306094 -0.039992884 0.028517123 -0.016845185
000160 6b da 8a 3c 34 06 34 bc 11 b4 8b 3a 64 2d d9 bc
       0.016949853 -0.010987807 0.0010658522 -0.026510902
000170 a8 5a 1d bc 02 4d 3e bb 68 92 ab bd 77 e4 1f 3d
       -0.009604134 -0.00290376 -0.08377534 0.03903624
000180 07 70 13 3d 6c 90 33 bb 02 0b 9e 3d c6 f0 05 3d
       0.03599551 -0.0027399315 0.07716943 0.032700323
000190 c2 b4 27 3c 48 2f 17 bc 0a e2 31 3d 0f c6 ac bb
       0.010235967 -0.009227581 0.04342846 -0.005272634
0001a0 78 d2 16 bd 72 f6 8a 3c 2d 22 44 bc 10 ff 94 bc
       -0.036821812 0.016963217 -0.011971039 -0.01818803
0001b0 d9 cf 54 bc 6c b1 c4 3c 80 af a1 3b 40 af 71 bd
       -0.012989008 0.024010383 0.0049342513 -0.059005022
0001c0 d9 e2 13 3e 7b 15 13 3c 03 a5 2f bd 18 26 ca 3d
       0.14442004 0.008977289 -0.042881977 0.09870547
0001d0 de 4a 01 3c d3 f0 c3 3c 31 bb dc 3c be 1a bd bb
       0.007891385 0.023918545 0.026944729 -0.00577101
0001e0 ee 87 eb 3d 5a 48 11 3d 1e ab 96 3b 74 af 77 3d
       0.11500536 0.03546939 0.0045980355 0.06047006
0001f0 21 a0 ec 3c f9 72 c7 bc d9 55 ab bc e8 74 f6 3c
       0.02888495 -0.024346815 -0.020914959 0.030085042
000200 c3 cc 8b bc df 8a c9 bb e4 ae bb 3c 7a a1 a1 bc
       -0.017065411 -0.006150588 0.022910543 -0.019730318
000210 59 57 60 3c 5a 83 42 3c f4 52 21 3b b4 e5 b1 bc
       0.0136927 0.011872137 0.0024616094 -0.021715976
000220 3d 98 62 3b 8d b1 34 ba f7 04 a5 3c 1b c0 37 3b
       0.0034575604 -0.0006892912 0.020143969 0.0028038088
000230 ec e9 94 bb 7e b0 ff 3c 72 89 55 bd 30 d0 99 3c
       -0.004544487 0.031212088 -0.05213303 0.01877603
000240 d4 79 6b 3c 23 de 40 bc 48 3c 77 bc 02 93 87 bc
       0.014372308 -0.0117717115 -0.015090056 -0.016549591
000250 53 ce 7d 3c 4c 65 1c 3c 64 92 0c bd 27 40 c4 3b
       0.015491086 0.009545635 -0.034319296 0.005989093
000260 d6 13 78 3b 51 9f b8 bc 53 be 04 3c c8 0d e5 ba
       0.003785362 -0.022536905 0.008102017 -0.0017475421
000270 d9 bd d6 bc a7 2b 31 3d 0c 02 ce 3b 09 7f 37 bc
       -0.026213573 0.04325452 0.006286865 -0.011199721
000280 df dc 85 3d 7d 13 1e bc f3 fd 63 3c a0 da db bc
       0.065362684 -0.009648201 0.013915527 -0.026837647
000290 6b 98 f0 3c e4 d0 65 bd e7 1b 0d 3e 23 ad 23 3b
       0.029369554 -0.056107417 0.13780175 0.0024975024
0002a0 21 8e f3 bc 8d b7 2f 3d da f1 31 3c a7 85 69 bd
       -0.029730858 0.042899657 0.010860885 -0.057012226
0002b0 5b 0d 3f 3d 6a cb 0d bc 29 2f df 3b 86 17 25 3d
       0.046643596 -0.008654455 0.006811042 0.040305637
0002c0 14 a7 f4 3b 95 7a 2f bd 5a 66 be 3d 3d 02 33 3d
       0.0074662063 -0.042841513 0.09296866 0.043703306
0002d0 81 de b5 bc 80 25 be bc 03 6b 05 3d 66 45 cf bc
       -0.022200825 -0.02321124 0.032572757 -0.025301646
0002e0 9e bf 72 3c ba ca 02 3d c6 98 1c bd ee b7 5c 3c
       0.014816193 0.031931616 -0.038231634 0.013471587
0002f0 71 93 65 3c 61 aa 11 3c 6f ba cf bc 6e 63 f8 3c
       0.014012204 0.008890719 -0.025357453 0.03032085
000300 9b 34 d1 bc 55 78 7e bd e5 7b 35 3d 39 b1 82 3d
       -0.02553778 -0.062126476 0.04430761 0.06381459
000310 9d 3e 7c bd 17 3f 9b 3c dc 89 78 bc 64 0f ab 3c
       -0.06158315 0.018950982 -0.015169587 0.020881362
000320 59 55 c5 3b cb 8d 0c 3d ce d8 b8 3d 30 50 1d bd
       0.006022137 0.03431491 0.09025727 -0.03840655
000330 38 0a bc bb 0a cf d5 3d a4 15 33 bd b3 a4 bf bc
       -0.005738523 0.1043988 -0.04372181 -0.023393964
000340 eb 17 75 3c 04 f1 50 bc 17 35 f4 3c 61 5e 0b 3d
       0.014959316 -0.012752775 0.029810471 0.034025554
000350 8c 4b 9b bc 16 d6 85 3d 87 fb b1 3c c1 2b da ba
       -0.018956922 0.06534974 0.021726383 -0.001664512
000360 b5 a5 51 bc a6 b2 83 3d 6b 7b d9 bb a8 27 e8 bc
       -0.012795855 0.06430559 -0.006637027 -0.028339222
000370 af 8c 68 3d 24 ac 40 3d 5d 2c 11 3d 25 89 65 3d
       0.05677479 0.047039166 0.0354427 0.056038994
000380 7e f9 d1 3c dd 96 df 3c 02 15 94 bd 67 3f 13 3c
       0.025631662 0.027293617 -0.072305694 0.008987284
000390 0c 7a 78 3d 99 9a 0b be c5 9a 61 bd 20 40 98 3d
       0.060663268 -0.13633193 -0.05507924 0.07434106
0003a0 ae b8 f9 bd 4d 2e 8b bc 7d d6 eb bc ae a3 28 bd
       -0.12193428 -0.016989851 -0.0287888 -0.041171722
0003b0 87 ad 2b 3c 8b 7f 99 bd 83 2f a8 bc bf 55 91 3b
       0.010478384 -0.0749503 -0.020530468 0.0044352706
0003c0 ba eb 14 bd 8c 4d b1 bd 5a 51 06 3d 46 31 4c bc
       -0.03635762 -0.08657369 0.032792427 -0.01246292
0003d0 e6 5b 9e 3c ea be 26 3c 42 37 24 bd 53 81 b9 bb
       0.01933093 0.010177353 -0.04009176 -0.0056611686
0003e0 53 ef 37 3d 6e 8e 71 3c f8 a7 18 bd 29 94 d8 bc
       0.04490597 0.014743431 -0.037269562 -0.026437836
0003f0 88 74 5c 3c 24 cc 97 bb bc 0e 05 3d 08 46 d3 ba
       0.013455518 -0.0046324898 0.032484755 -0.0016118893

conv3.conv2d.bias f4 [64]
000000 c2 7b 0c bd 4e 98 42 bd ee 8b f7 3c 62 b1 12 3d
       -0.034297712 -0.04750853 0.03021809 0.035813697
000010 c3 e4 60 bd 9f 49 3f 3d ba 48 98 bc ed 63 ec 3c
       -0.054905664 0.04670107 -0.018589366 0.028856242
000020 87 fc 67 3d 9c 2c a8 bc 72 fc 13 3b ad 0e 12 3d
       0.056637313 -0.020529084 0.002258089 0.035658527
000030 9e 7d b7 3c 97 e9 40 3d 13 e8 dd 3c 1e 55 6b bc
       0.022398766 0.04709777 0.0270882 -0.014363555
000040 75 3a 10 bd a5 08 33 3d b8 9a 31 3d 31 23 17 3d
       -0.035212 0.043709416 0.043360442 0.036898796
000050 b8 72 ba 3c 55 ae 02 3d b1 47 25 bd c4 0a 1a bd
       0.02275978 0.031904537 -0.040351573 -0.037607923
000060 3f d5 1d bc e8 ca db 3c a0 f0 3f bd 87 e6 68 bd
       -0.009633361 0.026830152 -0.046860337 -0.056860473
000070 2d 44 56 bd a4 92 68 3c 83 18 95 ba aa f3 5b 3c
       -0.05231111 0.014195118 -0.0011375103 0.013424793
000080 56 c1 51 bd 82 c7 d5 3b d2 b0 67 3d f7 a6 df ba
       -0.05120977 0.0065240273 0.056565113 -0.0017063309
000090 f8 38 66 3d 85 43 91 3c dc bb de 3c 23 7a ac bc
       0.056206673 0.017732391 0.027189188 -0.021054333
0000a0 8e 54 b2 bc 66 f0 17 bd 94 ad ac bc 27 fa bf bc
       -0.021768834 -0.037094496 -0.021078862 -0.023434712
0000b0 e6 8a 0e bc c7 c5 04 bc 03 aa 69 bd 26 78 79 bc
       -0.008700108 -0.008103794 -0.0570469 -0.0152263995
0000c0 bc 74 42 3d 99 d2 a9 3c ae 5b 20 3d 17 36 5a bd
       0.047474608 0.020730304 0.039149933 -0.05327424
0000d0 19 72 0c bd 01 a6 26 bd 56 4a 5e 3d 32 72 02 bd
       -0.0342885 -0.040685657 0.05427011 -0.031847186
0000e0 1a 1a 37 bc a2 df dd bc c0 e9 e6 bc 0e e6 58 bd
       -0.011175657 -0.027084175 -0.028187633 -0.052953772
0000f0 68 d6 a5 3b d9 e0 28 bd 86 d0 11 bd e4 e3 0a bd
       0.0050609596 -0.041230056 -0.035599254 -0.03390874

IN3.weight f4 [64]
000000 d2 d4 76 3f 1e 50 2a 3f b9 ce 54 3f 6b ad 53 3f
       0.9641849 0.665285 0.83127934 0.8268649
000010 98 4f 8f 3f 80 a0 75 3f 3d 73 58 3f f9 8a 47 3f
       1.1196165 0.9594803 0.8455084 0.7794643
000020 dd f7 78 3f 1b 92 55 3f 39 73 3e 3f ec 1a 76 3f
       0.9725321 0.83426064 0.74394566 0.9613483
000030 2e 17 44 3f da c1 5f 3f 4a 68 56 3f 16 7c 18 3f
       0.7659787 0.8740517 0.8375288 0.5956434
000040 a4 24 62 3f 50 8c 40 3f 1b b2 5d 3f 5b fa 2e 3f
       0.8833716 0.752141 0.8659989 0.6835076
000050 4e 26 6a 3f d9 5d 49 3f 76 eb 52 3f 60 5b 67 3f
       0.914647 0.78658825 0.82390535 0.903738
000060 55 3e 41 3f b5 ca 4e 3f 1a 7e 63 3f d7 af 8c 3f
       0.75485736 0.80778056 0.8886429 1.0991162
000070 b5 46 3d 3f 7b b8 57 3f 78 e4 41 3f a1 65 86 3f
       0.73936015 0.8426587 0.7573924 1.0499765
000080 57 f8 6a 3f a8 5a 7b 3f 73 fe 75 3f 7a 5f 61 3f
       0.91785187 0.98185205 0.96091384 0.8803631
000090 b1 13 76 3f b8 bd 57 3f 46 9f 74 3f 63 53 69 3f
       0.96123797 0.8427386 0.9555553 0.91142863
0000a0 f8 62 72 3f 4f 98 5d 3f 5a 78 54 3f 40 0a 61 3f
       0.94682264 0.8656053 0.8299614 0.87906265
0000b0 2a 8b 40 3f 61 8c 47 3f 91 da 60 3f 45 6c 63 3f
       0.7521235 0.77948576 0.87833506 0.8883708
0000c0 19 37 50 3f d5 8c 62 3f 95 03 60 3f 44 35 30 3f
       0.8133407 0.8849614 0.87505466 0.68831277
0000d0 c6 42 66 3f 71 0e 69 3f a1 fb 4f 3f 74 3a 64 3f
       0.8994564 0.9103766 0.8124333 0.8915169
0000e0 4b 27 5f 3f 36 0c 42 3f ea 7c 5f 3f f8 7d 67 3f
       0.8716933 0.7579988 0.8729998 0.9042659
0000f0 57 03 3b 3f 8e 83 4c 3f 1b 10 54 3f 89 97 7a 3f
       0.7305197 0.79888237 0.82837075 0.97887474

IN3.bias f4 [64]
000000 3f af c4 3e 08 fc f5 bc 87 32 2c 3f 7a 60 ba 3e
       0.38414952 -0.030027404 0.672646 0.3640173
000010 d4 89 9c 3d 86 4a 0a 3e 4a ba 94 3c 89 ff a4 3e
       0.07643476 0.13504991 0.018155236 0.32226208
000020 ce a7 73 3c 34 40 7a 3e d4 bc c4 3e 19 b5 27 3e
       0.014871551 0.24438554 0.38425314 0.16377677
000030 b4 12 23 3f b3 dd 18 3f b2 dd ec 3e c0 0f 06 3f
       0.63700414 0.59713286 0.4626289 0.5236778
000040 38 2e 83 3e 92 f9 2b 3f 05 df 90 3e 08 ca 24 3e
       0.256212 0.6717769 0.2829515 0.16092694
000050 d9 5d a6 3d 8e e8 2c 3f 8f 9b 5e 3f 6b 84 ca 3d
       0.08123369 0.6754235 0.86956114 0.09888538
000060 f7 1d d2 3e 35 eb 15 3f f0 c2 60 3f 6e b5 38 3d
       0.41038486 0.5856202 0.8779745 0.0450949
000070 27 00 35 3e b6 6e d7 3e ca e6 82 3f 45 f4 bc 3d
       0.1767584 0.42076653 1.0226681 0.09226278
000080 7c 61 28 3f c9 51 21 3e b5 34 e6 3e 30 d5 0b 3e
       0.6577375 0.15753855 0.44962087 0.13655543
000090 a4 35 ac 3e 4a d7 4f 3e 65 ff 8b 3e 3e a2 34 bd
       0.33634675 0.2029697 0.27343288 -0.04410004
0000a0 d3 ec cd 3e 34 08 b8 3e 80 25 b0 3e 58 30 9f bc
       0.40219745 0.35943758 0.3440361 -0.019432232
0000b0 72 47 d7 3e ff 1c 83 3e 82 47 78 3e a1 7f 5c 3e
       0.42046696 0.2560806 0.24246028 0.21533062
0000c0 50 93 3f 3f 13 06 d7 3e a1 15 5e 3e c9 4e 28 3f
       0.74834156 0.41996822 0.21687938 0.65745217
0000d0 0b 0a 64 3d 19 ae 0e 3f 3a ad 04 3f 2e f1 6e 3e
       0.05567364 0.557344 0.5182682 0.2333419
0000e0 06 b1 48 3d ef c6 31 3e 27 4a b0 3e 08 de 02 3f
       0.048996948 0.17361043 0.34431574 0.5112004
0000f0 2c d4 63 3f 13 51 48 3f 4c 40 86 3e 82 63 83 3e
       0.88995624 0.7824871 0.2622093 0.25661856

res1.conv1.conv2d.weight f4 [64, 64, 3, 3]
000000 d7 42 1e 3b d0 f7 5a bc 80 f8 23 bd 3e b6 e3 3c
       0.0024148726 -0.013364747 -0.04003191 0.02779686
000010 fe 80 77 bd 0f 6b 2a bd 73 4a 51 3c fd 95 66 bd
       -0.06042575 -0.041606005 0.012774098 -0.056295384
000020 54 ec 4c bd 7f 29 13 bd e9 40 9e bb c1 9c 84 bd
       -0.050030068 -0.035928246 -0.0048295152 -0.06475211
000030 a4 06 f1 bc c7 ab aa bc 99 80 44 bd c8 fb f8 bc
       -0.029422112 -0.020833863 -0.047974203 -0.030393496
000040 70 37 8e 3a 89 f1 b0 bc fc 2d ac 3c 6b c3 b8 ba
       0.0010850262 -0.021599548 0.02101802 -0.0014096325
000050 ea 3d fa bb 56 f8 e8 bc 33 6d 19 3d 2e cc e6 3b
       -0.0076367753 -0.028438728 0.037457656 0.007043383
000060 af 21 49 3b aa cc 96 bc ba d3 b8 bb b2 86 33 bc
       0.0030690243 -0.018408138 -0.005640474 -0.010957407
000070 a4 ac 04 3c a3 3e 6f bb 29 bb 53 bd 0a 4f b4 bc
       0.008097801 -0.003650584 -0.05169216 -0.022010345
000080 18 4e cd bb 72 45 ce 3c 09 2a 83 bb 45 26 49 bc
       -0.006265413 0.025179598 -0.0040028137 -0.012277191
000090 bf dd fa 3a 4f 09 87 bd 68 54 e0 bb 42 eb a3 bc
       0.0019139572 -0.06593572 -0.0068459995 -0.02000964
0000a0 8e c8 b2 bd 6d 61 13 3d 4c 47 ce bc 59 91 bf bd
       -0.08729659 0.035981584 -0.025180481 -0.09353895
0000b0 28 7e b0 bc bb b0 f0 3a 6e fa 8d 3c 45 d8 ed bb
       -0.021544531 0.0018363217 0.017331328 -0.0072584474
0000c0 1a 1e 0b 3d c7 ee 04 3d a6 6a bb bb b7 2b df 3c
       0.033964254 0.03245428 -0.0057195006 0.027242525
0000d0 21 77 0d 3d 54 be cc bb 07 a4 47 3b 55 ed af 3c
       0.03453744 -0.006248275 0.0030462758 0.021475473
0000e0 89 2c 48 3c 42 8a a1 3b c9 1d af 3c 68 96 6e bc
       0.012217649 0.0049298117 0.021376507 -0.014562227
0000f0 03 5b 17 bc 10 55 84 bc 37 fd c1 b7 4c ba ca bc
       -0.0092380075 -0.016153842 -2.3125305e-05 -0.024747036
000100 99 58 13 3d a5 b1 ea 3b 9e 49 a3 bc ec 63 1c bd
       0.035973165 0.00716229 -0.019932564 -0.03818123
000110 bd 76 30 bc a3 80 13 bc a4 04 80 bd c6 5c 2a 3b
       -0.010770497 -0.009002837 -0.06250885 0.0025995239
000120 1f 7f 9a 3c 31 46 2b bd ed 1a 6a 3c 27 1a 69 bc
       0.018859444 -0.041814987 0.014288646 -0.014227427
000130 ce 30 d8 bc 60 9b 07 bc a5 d7 55 3c 21 d1 d3 bc
       -0.02639046 -0.00827679 0.013051902 -0.025856556
000140 69 79 60 3a de 7f 63 bc 21 ea 4f bc b5 60 88 bc
       0.00085630134 -0.013885466 -0.012690098 -0.016647676
000150 cc 0d eb bb 5e 41 bb 3c 4f f6 00 3c cb 4a 84 bc
       -0.0071732756 0.022858318 0.007871225 -0.016148945
000160 1b 95 21 3b 87 83 08 3b 14 93 c5 bc 52 17 ea 3b
       0.0024655524 0.002083035 -0.024117984 0.0071438933
000170 47 51 7d 3c 6f 4e 1c bd 63 7a 28 bd 1b 2c e2 3b
       0.015461273 -0.038160738 -0.041132342 0.0069022304
000180 f0 8f 8b bb e0 7f 40 bd 2d 85 0e 3b fb f6 f2 3a
       -0.004259102 -0.04699695 0.002174686 0.0018536741
000190 50 65 d3 bc 4d ab 81 bc ea 1a 90 bc f2 60 21 bc
       -0.025805146 -0.015828753 -0.017590959 -0.009849774
0001a0 20 fa 05 bc 75 29 c2 bb a5 42 48 bd 01 86 29 bc
       -0.00817731 -0.005925352 -0.048891682 -0.01034689
0001b0 dc ff 53 bc 30 88 af 3c fb a6 07 bd 29 3b 8a bb
       -0.01293942 0.021427244 -0.03311823 -0.004218478
0001c0 39 7d 95 3d 70 25 1f bd 51 0a c1 3b 89 22 b7 3c
       0.07299275 -0.038854063 0.0058911224 0.022355335
0001d0 1a 45 0c 3c 4f ac dc b9 32 80 75 3c 82 60 a7 bc
       0.008561397 -0.0004209005 0.014984177 -0.02043176
0001e0 f0 ef 99 bc a3 30 0f 3d f7 ba cd bb 49 be b9 bd
       -0.018791169 0.034958493 -0.0062783915 -0.09069497
0001f0 78 cd 8c bc 70 30 ba bb 63 58 0a 3d e2 b3 51 ba
       -0.017187819 -0.0056820437 0.0337757 -0.0007999522
000200 6e 92 e9 3b ba f7 0f 3d 4a 34 d9 3c de 80 94 bc
       0.0071280515 0.03514836 0.026514191 -0.018127855
000210 21 3d 84 3c 9a 34 6d bb f2 98 8f bc cb d0 7f 3d
       0.01614243 -0.0036194683 -0.017528985 0.06245498
000220 c4 dd 13 ba fa 90 a0 bb 0d 49 e5 bb 0f 27 b1 bd
       -0.00056406506 -0.004900095 -0.0069972337 -0.08650028
000230 10 d3 41 bd 9f f6 17 bc fb cb 3d bd 2e eb 2b bd
       -0.047320426 -0.009275108 -0.04633711 -0.04197233
000240 44 4e 58 3d 33 8e ac bc b3 0d 9f bb ad 05 95 3c
       0.052809015 -0.0210639 -0.004853928 0.018191183
000250 a4 35 21 3b a6 65 e1 ba 29 7a 09 bd 7c 12 84 bc
       0.0024598623 -0.0017196431 -0.033563767 -0.016122095
000260 95 cb 0f 3d 02 04 4a bc cc 53 8d 3c 30 df 4b 3c
       0.03510626 -0.012330057 0.017251872 0.012443349
000270 e5 d0 a8 3d 8b 5e 6d 3d 2b 1c cd bc 53 f4 77 bd
       0.082429685 0.05795149 -0.025037846 -0.06053574
000280 2c f6 4d 3c a4 b7 e5 bb 54 f7 49 3a 45 93 fe bc
       0.012570899 -0.007010417 0.0007704396 -0.031076083
000290 54 9b 91 bc 2b 66 58 3c 87 7c 2a bd 68 61 27 bd
       -0.017774262 0.0132079525 -0.041622665 -0.04086438
0002a0 bc 36 81 3c e1 e0 69 bd 99 2b 9f bc 04 f7 af bc
       0.01577317 -0.057099227 -0.019429969 -0.02148009
0002b0 74 4d 2a bc ed 2b d0 bc 3d d2 55 3b 38 87 88 bc
       -0.010394443 -0.02541157 0.0032626532 -0.01666604
0002c0 7f 2f e2 3c ce 29 ae bb 2c ea cd 3c 09 01 2e 3d
       0.027610539 -0.005315042 0.025136076 0.042481456
0002d0 38 6b 41 bc d8 41 3f bc 86 0c bf bc a3 cd a3 3b
       -0.011805348 -0.011673413 -0.023321401 0.004998879
0002e0 42 c8 fc 3b af 92 05 bd 7b ef e3 bb d1 a5 92 bc
       0.0077143023 -0.03261059 -0.0069560385 -0.017901333
0002f0 6a 6c aa bc f1 c0 35 bd 50 ab 1d 3c c8 e6 1e bd
       -0.020803649 -0.044373456 0.009623364 -0.03879431
000300 1b dc a7 bc e1 60 e0 bb a3 d6 38 bd e1 1d a7 3c
       -0.020490697 -0.0068474864 -0.04512657 0.02039999
000310 30 d1 03 3d dd 87 83 bd 16 f0 b5 3c 14 45 5b bc
       0.03218192 -0.06422398 0.022209208 -0.013383169
000320 6d 61 1d 3d 9f 88 46 bc fc b6 08 bd 9c 34 35 3d
       0.03842299 -0.012117534 -0.033377632 0.044239625
000330 21 fd ad 3c 9b 39 31 bc 3b a6 f0 3c 9e 82 37 bd
       0.021238865 -0.010816957 0.02937614 -0.0448023
000340 6c c1 2d bc e0 ef bd bb 81 fc 4b bc e2 b1 fe ba
       -0.010605197 -0.0057964176 -0.012450338 -0.0019431675
000350 68 7f 46 3b 1e 88 2d 3d 97 ee 35 bd fd 9f 8c 3a
       0.0030288342 0.04236614 -0.04441699 0.0010728833
000360 ba 62 ea bc ee a6 2b 3d 35 54 23 bc ee 7f 6b bc
       -0.02861153 0.041907243 -0.009968807 -0.0143737625
000370 87 b3 5e bd 37 58 58 3c a9 87 7e bb 18 31 d0 3c
       -0.05437043 0.013204626 -0.0038838184 0.025414035
000380 df 5e c3 bc e7 f9 00 bb 35 fe 8f 3d bd 46 9e 3c
       -0.023848949 -0.0019680203 0.07030908 0.01932084
000390 6b 3d 32 bd 51 e7 2d 3d 91 14 cb 3c cf 91 29 3d
       -0.043515604 0.04245693 0.02479008 0.04139882
0003a0 fe 9d 43 3d 19 81 22 3c 63 22 04 3b 71 ff 3c 3c
       0.047758095 0.009918475 0.0020162098 0.011535511
0003b0 be 2d 5c 3c 3f 89 c9 bc 82 89 3e 3d 58 d0 1e 3d
       0.01343864 -0.024601577 0.046517856 0.03877291
0003c0 a3 fc bc 3c 68 21 3f 3d 64 f9 f2 3b 8e 23 45 bd
       0.023069685 0.046662718 0.0074149836 -0.04812961
0003d0 b6 2b 91 3c 63 73 39 3d 98 a6 3d bc be a2 2f 3c
       0.017721038 0.045276057 -0.011575364 0.010719953
0003e0 69 1e 36 bc c3 f0 16 bd f0 ff 9d 3d 32 76 31 3d
       -0.011115649 -0.036850702 0.07714832 0.04332561
0003f0 f1 f8 d1 bc 3b a1 22 3c f8 34 57 3c a9 2f 26 bd
       -0.0256314 0.009926136 0.013135187 -0.040572796

res1.conv1.conv2d.bias f4 [64]
000000 a1 20 97 3b dc a0 20 3d a1 6d 4f 3a 11 a9 a1 bc
       0.004612044 0.039215907 0.00079127593 -0.019733937
000010 98 28 a4 bc 5d d4 23 bb 25 f5 36 bc b1 5d 17 bd
       -0.020038888 -0.0024998405 -0.011166845 -0.036954585
000020 f0 0e 9f 3c 30 22 c5 bc 6e 70 1f 3d 23 e5 b4 3c
       0.019416302 -0.024064153 0.03892558 0.022081917
000030 d3 26 54 bb a2 fc 56 3c e8 1d 11 3b 6d a0 83 bc
       -0.0032371774 0.013121756 0.002214307 -0.016067708
000040 1c 82 c2 3c 71 eb 2b ba 52 09 d1 ba 9a 8d 5b 3b
       0.023743682 -0.0006558216 -0.0015948212 0.003350115
000050 7a 64 a5 bb b4 68 02 bd ee ef 60 3a 39 a0 c4 3c
       -0.005047378 -0.031838134 0.0008580674 0.024002181
000060 fb de 18 3d bb 4d bb 3c 9d ab 19 bd be 7f bc bc
       0.037322026 0.022864213 -0.03751718 -0.023010131
000070 a0 1e f3 3c af fc 88 bc 4d 5a 20 3d c6 1a 41 bc
       0.02967769 -0.016722051 0.039148618 -0.011786168
000080 6b 0a 83 3b 08 63 c3 3b 98 33 c3 3c 53 8e f1 bb
       0.0039990447 0.005962733 0.023828313 -0.0073717027
000090 1f d5 33 3c 46 dd 20 3b 67 a3 90 3c ab 61 02 bd
       0.010976105 0.0024545952 0.017656041 -0.031831425
0000a0 91 c5 28 bd 64 f4 ed bb a1 38 03 3d 2d 11 0b 3d
       -0.04120404 -0.0072617996 0.032036427 0.033951927
0000b0 a7 07 12 bd aa 5b f5 bb 8d ef ed 3b 3e ae 53 bb
       -0.03565183 -0.007487734 0.0072612227 -0.0032299901
0000c0 fe a4 0c bd 08 3d 15 3a 66 b5 29 3b 4a 46 e2 bc
       -0.034337036 0.0005692993 0.0025895475 -0.027621407
0000d0 30 dd b7 bc b6 c2 1d bc 1d 00 25 bd 36 54 4c bc
       -0.022444338 -0.009628942 -0.04028331 -0.012471249
0000e0 5c 22 a3 3c 10 bb ba bc bb 00 01 3c c8 5a 88 bc
       0.019913845 -0.022794276 0.007873709 -0.01664485
0000f0 48 83 f4 bc 91 3e 14 bd 46 e3 d9 3c dc fa d6 3c
       -0.029847756 -0.03619248 0.02659763 0.026242666

res1.IN1.weight f4 [64]
000000 a8 ab 5a 3f 00 2d 6f 3f e7 22 80 3f 7c d8 78 3f
       0.85418177 0.9342804 1.0010651 0.9720533
000010 ae 69 8c 3f 6d 44 75 3f 83 24 8d 3f a6 cf 82 3f
       1.0969751 0.95807534 1.1026767 1.0219619
000020 ec 62 71 3f e1 9b 6b 3f e3 d2 5a 3f 0c c8 79 3f
       0.9429157 0.9203473 0.8547804 0.9757087
000030 00 a2 92 3f 29 2c 58 3f a1 af 88 3f 2a a7 62 3f
       1.1455688 0.84442383 1.0678598 0.8853632
000040 67 f6 88 3f 88 94 96 3f 19 df 81 3f b6 e2 72 3f
       1.0700196 1.1764078 1.0146209 0.94877183
000050 36 d4 70 3f 6f 96 6c 3f 48 bb 5d 3f d1 a4 82 3f
       0.9407381 0.92417043 0.86613894 1.0206548
000060 05 64 7d 3f 45 e3 6e 3f b0 03 74 3f 9f da 76 3f
       0.9898074 0.93315536 0.95318127 0.9642734
000070 dd 1c 77 3f ec 84 65 3f 08 7b 75 3f bb 72 7e 3f
       0.96528417 0.8965595 0.95890856 0.99393815
000080 ba 4b 82 3f 4b 0a 78 3f f9 c6 af 3f 54 30 63 3f
       1.017936 0.96890706 1.3732597 0.8874562
000090 1a e8 6d 3f 43 54 65 3f 4d 79 78 3f 9d bf 63 3f
       0.92932284 0.895817 0.9706009 0.88964254
0000a0 c5 50 70 3f 42 ac 74 3f 3d 5d 8e 3f a0 3c 6b 3f
       0.93873245 0.95575345 1.1122204 0.9188938
0000b0 71 78 9d 3f 1f 74 82 3f a9 bd 76 3f 16 87 7d 3f
       1.2302381 1.0191687 0.9638315 0.9903425
0000c0 bb ea 95 3f bc 15 7a 3f c0 e5 69 3f f2 47 60 3f
       1.1712259 0.97689414 0.91366196 0.8760978
0000d0 a4 fb 6b 3f 10 b6 87 3f d7 4a 7b 3f e0 f0 7e 3f
       0.9218085 1.0602436 0.9816107 0.99586296
0000e0 00 59 71 3f 43 b2 5d 3f c9 cd 70 3f 65 08 82 3f
       0.9427643 0.8660013 0.94064003 1.0158812
0000f0 29 2c 66 3f 01 f1 73 3f 31 59 60 3f bf 99 80 3f
       0.89911133 0.9528962 0.87636095 1.004692

res1.IN1.bias f4 [64]
000000 90 55 c2 3e 13 44 70 3d 7a 3f 8e bc 00 78 db 3d
       0.37955904 0.05865867 -0.017364252 0.107162476
000010 d9 ef f4 3d 4e 4c db 3d bd 78 d8 bd d5 3f 5b 3e
       0.1195981 0.10707913 -0.10569904 0.21411069
000020 61 06 5a 3e 43 ab 18 3e 7e e0 fd 3e a5 55 6b 3d
       0.21291496 0.14909081 0.49585336 0.057454724
000030 a5 05 15 be 00 91 05 3f a6 02 2e 3d 61 65 52 3e
       -0.14552934 0.5217438 0.042482994 0.20546485
000040 87 67 a4 3d 95 c0 df bd 51 42 25 3c 8d e9 a2 3e
       0.08027559 -0.10925404 0.010086612 0.3181881
000050 8e e3 a8 3e 75 2d 5a 3e be b7 15 3f 1d 39 15 bd
       0.3298611 0.21306403 0.58483493 -0.03643142
000060 b1 68 6a 3e 19 68 b0 3e 32 7b a2 3c 2f c7 cc 3d
       0.22891499 0.3445442 0.019834135 0.09998929
000070 6e c5 3e 3e f9 5e c4 3e d8 9b 74 3e 0d 8a fd 3d
       0.18630001 0.38353708 0.23887575 0.12379847
000080 e9 ed 5c bd 67 7c c7 bb f9 48 a0 bd 0f b3 3e 3f
       -0.053937826 -0.006087828 -0.078264184 0.7449197
000090 8b a6 b5 3e d5 39 19 3f 32 07 55 3d 4e 3b b9 3e
       0.35478625 0.5985387 0.052008815 0.36178058
0000a0 ff af 87 3e bd f7 b5 3e a1 06 91 3d 6e 89 89 3e
       0.26501462 0.35540572 0.070813425 0.26862663
0000b0 a1 c1 38 be 35 65 4a 3e 5a a1 12 3e 08 c9 31 3e
       -0.18042614 0.1976517 0.14319363 0.17361844
0000c0 8f 6b 3a bc d6 7f 7b 3e 38 0b a3 3e 97 32 72 3e
       -0.011378183 0.24560484 0.31844497 0.23652111
0000d0 24 5e 8e 3d 28 02 02 3d a8 54 95 bd 5c 19 cf bd
       0.0695155 0.031740338 -0.072915375 -0.10112259
0000e0 00 24 08 3a 20 da 8f 3e ad 2d 43 3e 9f c8 84 3e
       0.00051933527 0.28096104 0.19060393 0.25934312
0000f0 21 8e af 3e 14 6f 43 bd 68 6b b2 3e 17 97 cf 3c
       0.34288123 -0.047713354 0.3484757 0.0253406

res1.conv2.conv2d.weight f4 [64, 64, 3, 3]
000000 db 62 00 bc b7 75 83 3c 74 3f 30 ba 71 de 14 3d
       -0.007836069 0.016047342 -0.00067233224 0.03634495
000010 97 03 58 3d 88 5f 25 3c ad 9c c0 bb 03 62 06 bd
       0.0527378 0.010093577 -0.005878052 -0.032808315
000020 9b c7 c0 bc 46 ae 0f bd c4 a9 4d bd 7f 18 47 3b
       -0.02353268 -0.03507831 -0.05021073 0.003037959
000030 d5 39 13 3d 75 82 c4 3c 2f d1 67 3b 10 93 52 bd
       0.035943825 0.023987988 0.0035372486 -0.05140978
000040 80 c8 06 3d 8a 49 45 bc 21 b0 be bb db eb ad bb
       0.032906055 -0.012041459 -0.005819336 -0.005307657
000050 05 05 cf 3c 70 7d c4 bc a1 2c 35 3c 65 b5 c8 3c
       0.025270948 -0.023985595 0.011058004 0.024500558
000060 31 cd f0 bc a1 67 1c bd de a9 39 bb 7b a1 6e 3b
       -0.029394718 -0.038184766 -0.0028330008 0.0036412168
000070 93 86 ec bc 2b ec 7c 3c 73 0c 14 3e 7c 59 af bd
       -0.028872764 0.015437166 0.14457874 -0.0856199
000080 43 50 1e bd 46 ca a0 3c b4 47 b4 ba 90 f2 db 3b
       -0.038650762 0.019627701 -0.0013754279 0.0067122653
000090 32 5c e6 ba 5c 65 4e bb 8c b5 1c bc 5e 3a a9 3b
       -0.0017575084 -0.003149352 -0.0095647685 0.0051644286
0000a0 67 d9 33 3d fb ab 24 bb 4b 19 36 bc b5 73 61 3c
       0.043908503 -0.0025126922 -0.011114429 0.013760497
0000b0 2d 1e 04 3d b5 fd 26 bc a1 93 cd bc 01 8a 83 3c
       0.03225534 -0.010192324 -0.025094809 0.016057016
0000c0 9b 11 73 3c b0 b8 4f bd 73 3a 76 ba c6 1a ae bc
       0.01483574 -0.05071324 -0.0009392865 -0.021253001
0000d0 a0 c3 ab bc 32 be 31 3d 26 f6 06 3d 63 88 62 3d
       -0.020967305 0.043394275 0.03294959 0.05530585
0000e0 98 01 26 bc 09 83 84 3c 07 78 99 3c e8 5f 1c 3d
       -0.010132216 0.016175764 0.018733991 0.0381774
0000f0 d0 7a ff 3b 0b 74 44 3d 5b 4a ea bc 46 e4 4c 3c
       0.007796623 0.04796223 -0.028599909 0.0125055965
000100 3b 2c ba bc d7 a8 95 bc 38 92 0d bc 78 ad 24 bd
       -0.022726169 -0.018268986 -0.008640818 -0.040204495
000110 46 86 5d bc a6 e9 34 3b b1 4b a6 3d c8 53 9c bb
       -0.013520783 0.0027605086 0.08119906 -0.0047707297
000120 8b 11 27 bd 14 2d 84 bb d1 09 55 bc b9 fc 4f 3c
       -0.040788215 -0.004033694 -0.013002829 0.012694531
000130 9b b3 b4 bb e4 53 6e bc 89 8b 21 bb 43 eb ce 3b
       -0.0055145747 -0.014546368 -0.002464982 0.0063146665
000140 e9 e2 85 3c ff 68 81 bb f2 60 58 3c 2a a6 3b 3a
       0.01634355 -0.003949284 0.013206707 0.0007158244
000150 4c 36 a7 bb e2 4f 76 3d 32 9c c5 3c 21 70 d8 bb
       -0.0051029082 0.060134776 0.024122331 -0.0066051637
000160 4d 32 21 3d 8e 07 3c 3c 7f f4 bf 3b 95 a5 2c 3b
       0.03935461 0.011476411 0.0058580036 0.0026343812
000170 57 30 45 3c e3 bc 19 bd b3 1a 53 3c 8f 5a 56 3c
       0.012035451 -0.037533652 0.012884784 0.013083114
000180 62 4f bb 3c 74 c2 e4 ba 6f 0b 09 3c dd 41 ca 3b
       0.022865001 -0.0017452971 0.008364542 0.0061724023
000190 c6 87 95 bb 7c c0 3c 3c 0e 0c 52 3b bd 88 34 bc
       -0.0045633046 0.011520501 0.0032050642 -0.011018929
0001a0 40 51 2f 3d 8d 7e c1 bc f7 16 9f 3c a8 cb 0f 3d
       0.042802095 -0.023619914 0.01942013 0.03510633
0001b0 39 48 90 bc 2b 74 65 bc 36 93 f9 bb 7e 6f a6 3c
       -0.017612563 -0.014004747 -0.007616426 0.020316835
0001c0 04 f0 5a 3d 79 5f a4 3c 31 fb 9d bc c5 8d 8e bb
       0.053451553 0.020065056 -0.019284816 -0.0043503963
0001d0 05 e4 88 bc 5f 6d c3 3c 82 e5 8c bc 73 f0 5e 3b
       -0.01671029 0.023855863 -0.017199282 0.003401783
0001e0 2f 49 4f bc 4b f4 0d bd cc 6a ec 3b f8 a6 d0 bb
       -0.012651726 -0.034656804 0.0072148796 -0.0063675605
0001f0 e7 0a 31 3c e2 d5 0b 3d 18 41 b0 ba 21 cd 29 bc
       0.010805822 0.03413952 -0.0013447134 -0.010363848
000200 90 de c6 bc f8 b9 8e 3c ba 6b 00 3d 1d 95 bd bc
       -0.024276048 0.017422661 0.031352736 -0.023142392
000210 2c 4e 84 bc f9 c9 fd bc 0c a3 cc bc 82 d4 7c bc
       -0.016150557 -0.030980097 -0.02498009 -0.015431525
000220 50 6c 43 3b 51 b3 2b 3c b8 17 33 bc b9 96 a2 bc
       0.0029819198 0.010479764 -0.010930948 -0.01984726
000230 30 91 04 bd 53 f1 23 ba 07 6b 42 3c fd c5 84 bc
       -0.032365024 -0.00062539167 0.011866338 -0.01620769
000240 e8 bc 96 3c ab 24 45 3d 45 1a 4b 3d 83 aa 42 3c
       0.018400624 0.048130672 0.0495856 0.0118814735
000250 e0 8c 24 3c c5 0a 10 3c ac ef a9 bc 0f 34 10 bc
       0.010043353 0.00879163 -0.020744167 -0.008801474
000260 63 9c 45 bd aa 69 d2 b9 60 d3 b0 3c 72 83 e9 3c
       -0.048244845 -0.00040133047 0.021585166 0.02850506
000270 7f 69 90 3a f2 6b a1 3c c4 ac 31 3d fe e2 56 bc
       0.0011017768 0.019704793 0.043377653 -0.013115643
000280 54 ea 54 3d bb 74 75 3d fe 75 5f bb c1 a3 59 bc
       0.051981285 0.059925776 -0.0034097428 -0.013283671
000290 33 06 a8 bb d2 b5 52 bc df 8c eb bc 19 2d 27 bd
       -0.005127692 -0.012860732 -0.028753696 -0.040814493
0002a0 2b 1e 26 bb c9 70 6b bc e9 52 a2 bd ac c7 da bc
       -0.0025347571 -0.014370152 -0.0792597 -0.02670654
0002b0 bf 8f 48 bb ef 2b 16 3d 5c 89 3b bd 32 ff 16 bc
       -0.0030603257 0.036662992 -0.045785293 -0.009216117
0002c0 b4 14 01 3d 9f 6a e5 ba cf c6 34 3c de 35 95 bb
       0.031513885 -0.0017503089 0.011033728 -0.0045535406
0002d0 69 63 87 3c ea 54 fa 3b 33 15 e4 3c 1b 74 8a 3d
       0.016526895 0.007639517 0.02784214 0.067604266
0002e0 9d 04 9f bd 00 c4 f7 bd 8b 18 4f 3d 4a 7c ec 3c
       -0.07764552 -0.12097931 0.050560515 0.02886786
0002f0 54 a0 9b bc bc 71 69 bd 14 3d 55 3c 92 fc 10 bc
       -0.018997349 -0.05699323 0.01301505 -0.00884928
000300 dc 4a 07 3c 50 71 f3 bb fc 9c 82 bc 10 a2 b0 bc
       0.008257594 -0.0074292794 -0.015943997 -0.021561652
000310 85 57 42 bc 23 80 43 3d 69 eb 1e 3c ce 05 cb bc
       -0.011861687 0.047729623 0.009699681 -0.024783041
000320 24 6b f9 39 b7 e7 72 bd aa c2 73 3d 36 2b a9 3c
       0.00047572807 -0.05930301 0.059511818 0.020650487
000330 8e 99 93 3b 2c 09 40 3d 7d 8e d9 bb c7 5e 47 3d
       0.004504389 0.046883747 -0.0066393004 0.04867437
000340 4a 16 a2 3c 96 89 c7 3c 11 03 07 3d a9 0c 24 3d
       0.019786019 0.024357598 0.03296191 0.040051136
000350 85 5e d2 3b ab 61 a7 bc 0d 65 0c bd ca dd c7 bc
       0.006419959 -0.020432314 -0.034276057 -0.02439775
000360 e9 9a a7 bc 97 b8 17 3c b9 14 01 3d b8 82 03 3d
       -0.02045961 0.009260318 0.031513903 0.032107085
000370 b5 33 10 bc 17 da 97 3c 30 c3 02 3d df 30 3d 3d
       -0.00880139 0.01853661 0.031924427 0.046189185
000380 40 d9 ea 3c ce fb 3f 3c 33 4b 14 bd b7 65 41 3a
       0.028668046 0.01171775 -0.036204528 0.00073775224
000390 6d 78 a3 bd a3 9c 15 3d db 19 61 3d 90 19 a0 3c
       -0.07981954 0.036526334 0.0549563 0.01954344
0003a0 d9 b0 a1 bc 90 ae a7 bc 22 35 e0 bb c0 2b 04 bc
       -0.019737648 -0.02046898 -0.0068422714 -0.008067071
0003b0 d4 0a e0 3c fc 1c 07 bc bf 17 3b 3c f6 b5 97 3c
       0.027348913 -0.0082466565 0.011419236 0.018519383
0003c0 37 41 74 3c bf 29 75 bd a8 2e 13 bc f2 84 8a 3c
       0.014908127 -0.059854265 -0.008983292 0.016909096
0003d0 6e 6a 59 bc f5 5e 45 bd 41 ef b5 3c f8 fc ee 3c
       -0.013270004 -0.04818626 0.022208812 0.02917336
0003e0 be 01 6a 3b 17 ed 46 3c 8f b4 e9 39 c1 f3 89 3c
       0.0035706605 0.012141488 0.0004457575 0.016839864
0003f0 bf 74 9c bc 83 5e 18 bc 90 42 b4 3c d3 31 b4 bc
       -0.019098638 -0.009299877 0.022004396 -0.021996414
